Model: "sequential"
_________________________________________________________________
 Layer (type)                Output Shape              Param #   
=================================================================
 conv2d (Conv2D)             (None, 224, 224, 32)      896       
                                                                 
 max_pooling2d (MaxPooling2D  (None, 112, 112, 32)     0         
 )                                                               
                                                                 
 conv2d_1 (Conv2D)           (None, 112, 112, 32)      9248      
                                                                 
 max_pooling2d_1 (MaxPooling  (None, 56, 56, 32)       0         
 2D)                                                             
                                                                 
 conv2d_2 (Conv2D)           (None, 56, 56, 64)        18496     
                                                                 
 max_pooling2d_2 (MaxPooling  (None, 28, 28, 64)       0         
 2D)                                                             
                                                                 
 dropout (Dropout)           (None, 28, 28, 64)        0         
                                                                 
 flatten (Flatten)           (None, 50176)             0         
                                                                 
 dense (Dense)               (None, 128)               6422656   
                                                                 
 dense_1 (Dense)             (None, 2)                 258       
                                                                 
=================================================================
Total params: 6,451,554
Trainable params: 6,451,554
Non-trainable params: 0
_________________________________________________________________
Epoch 1/3

 1/83 [..............................] - ETA: 7:57 - loss: 0.7072 - accuracy: 0.4688
 2/83 [..............................] - ETA: 2:52 - loss: 0.7065 - accuracy: 0.4219
…
